Module6_DeepLearning_Advance/Week1_CNN_basic/lenet_model.pt (torch, 250544 bytes, 10 tensors)

conv1.weight f4 [6, 1, 5, 5]
0.038450815 -0.32353687 -0.23586299 -0.24874242 0.11500017 -0.30666777 -0.0959902 -0.1920316
0.060894363 0.24580501 -0.032761298 0.174753 0.25564867 0.25425243 0.2446393 0.09152053
0.25456002 -0.041795958 0.14955017 0.0898763 0.16629814 -0.0010894954 0.20644738 -0.030639943
-0.17599468 -0.0832973 -0.18974134 -0.0765316 0.18362994 0.07388297 -0.3076621 0.08691999
-0.13232139 0.17258939 0.060107853 -0.2202791 -0.17367531 0.2749389 0.151703 0.007844796
-0.21087767 -0.067979835 0.015294825 0.1983506 0.026344543 -0.34933612 0.17659408 0.22464542
0.07662311 -0.11198684 0.101186424 0.23790988 0.0050794375 -0.033421464 -0.2615571 0.17839496
0.23455608 -0.073155686 -0.13393234 0.008256115 0.15368162 0.22830057 -0.04887302 -0.17983283
0.0055080154 -0.0068328883 0.0024657964 0.24972966 0.18936442 0.00042672182 0.16854504 0.0982855
0.13196015 -0.07090814 0.03679126 -0.23267375 0.016147058 -0.28455302 0.081237055 0.019860808
0.015750203 0.03342937 -0.1529339 -0.20413414 -0.36930105 0.18112053 -0.081531696 -0.21503952
-0.17403276 -0.108828776 0.18842566 -0.012369664 0.25077954 0.2484286 0.06347272 0.1981086
0.037892014 0.26796526 0.10792059 0.16486335 0.14987923 -0.033879336 0.029131478 0.015300017
-0.30566508 0.0444673 0.09753456 -0.14870253 0.0012332528 -0.035039496 -0.04669494 -0.07622947
-0.19265017 -0.14704879 -0.1512109 -0.040242724 -0.14982942 0.09251037 0.046394058 0.011371238
-0.24400562 -0.21221173 0.0395259 -0.014523 0.164132 -0.14941187 0.10203724 0.10323315
-0.19087724 -0.026421595 -0.2283927 0.008284781 0.011158812 -0.20428172 -0.14704606 -0.08916538
-0.17834221 0.10626633 -0.21288456 0.058387328 -0.14642248 -0.16413713 -0.16515976 0.13840905
0.08895304 -0.07146406 0.0974841 -0.21706624 -0.14680657 0.04389986
00000000: 9a7e 1d3d a0a6 a5be 1186 71be 55b6 7ebe
00000010: 3685 eb3d 8f03 9dbe 8396 c4bd efa3 44be
00000020: 5e6c 793d 4fb4 7b3e b630 06bd 73f2 323e
00000030: 62e4 823e 602d 823e ba82 7a3e 1e6f bb3d
00000040: b155 823e 3d32 2bbd ae23 193e 1111 b83d
00000050: 0f4a 2a3e 66cd 8eba f166 533e 9e00 fbbc
00000060: f337 34be c697 aabd 8e4b 42be 99bc 9cbd
00000070: 7d09 3c3e f44f 973d e385 9dbe 1c03 b23d
00000080: 427f 07be 46bb 303e a733 763d d890 61be
00000090: f1d7 31be cbc4 8c3e 0858 1b3e 7687 003c
000000a0: 51f0 57be 0339 8bbd 2597 7a3c 6b1c 4b3e
000000b0: 83d0 d73c 2fdc b2be 14d5 343e 7309 663e
000000c0: 94ec 9c3d 5b59 e5bd d43a cf3d a69e 733e
000000d0: 6971 a63b f2e4 08bd d0ea 85be 2bad 363e
000000e0: 782f 703e a6d2 95bd 8f25 09be a844 073c
000000f0: b75e 1d3e a0c7 693e 132f 48bd 1926 38be
00000100: 957c b43b 6ce6 dfbb 3399 213b 22b9 7f3e
00000110: bfe8 413e a2b9 df39 1297 2c3e e949 c93d
00000120: 9020 073e 4938 91bd 6fb2 163d 0742 6ebe
00000130: d646 843c efb0 91be 9d5f a63d 22b3 a23c
00000140: 9206 813c 3ced 083d b49a 1cbe 8a08 51be
00000150: 0715 bdbe a977 393e 17fa a6bd 5233 5cbe
00000160: a535 32be 9fe1 debd a8f2 403e 22aa 4abc
00000170: 2d66 803e 1164 7e3e fcfd 813d fbdc 4a3e
00000180: a834 1b3d be32 893e 7805 dd3d f0d1 283e
00000190: f179 193e 0fc5 0abd 23a5 ee3c ecac 7a3c
000001a0: 2280 9cbe 5823 363d 33c0 c73d 7a45 18be
000001b0: 19a5 a13a 9385 0fbd 3243 3fbd 321e 9cbd
000001c0: 1646 45be f593 16be 08d7 1abe 8ed5 24bd
000001d0: e26c 19be 1476 bd3d b207 3e3d 6e4e 3a3c
000001e0: 9cdc 79be 084e 59be e9e5 213d e1f1 6dbc
000001f0: 3812 283e 6dff 18be e7f8 d03d e76b d33d
00000200: 5375 43be 1a72 d8bc c7df 69be e4bc 073c
00000210: 73d3 363c 3a2f 51be 3e93 16be 579c b6bd
00000220: 579f 36be 29a2 d93d 69fe 59be 8d27 6f3d
00000230: c6ef 15be 9013 28be a41f 29be 1abb 0d3e
00000240: 032d b63d c05b 92bd bea5 c73d 9d46 5ebe
00000250: 7654 16be 57d0 333d

conv1.bias f4 [6]
-0.029448833 -0.025782935 -0.22405921 0.1992128 -0.046729576 0.053998224
00000000: ae3e f1bc bc36 d3bc c76f 65be 71fe 4b3e
00000010: 8367 3fbd 3e2d 5d3d

conv2.weight f4 [16, 6, 5, 5]
-0.012429015 -0.01765097 0.044615664 -0.022428997 -0.059517298 0.105554506 0.14022233 0.053855207
0.036496848 0.03900004 0.015566361 0.03786456 -0.06865436 -0.0022979588 -0.13355683 -0.005856837
-0.108101055 -0.15538819 -0.19911072 -0.15169017 0.01858663 0.04632502 0.07281316 -0.05582147
0.052688044 0.004953163 0.010435796 0.07902927 0.053834964 0.017993215 0.13195328 -0.009569152
0.04208837 0.0061111394 -0.058521967 0.026484178 0.10626876 0.010362131 0.0057415655 -0.0066478527
-0.060246482 0.03020839 0.060033172 -0.029337386 -0.05432815 -0.06684757 0.025061693 0.0043384912
-0.082454704 -0.0655783 -0.11052802 -0.09313118 0.08601725 0.046435315 -0.041359287 -0.1089496
-0.059932176 -0.029817538 -0.011172151 0.019506823 -0.103664026 -0.11334796 -0.078226015 -0.015295274
-0.0074012275 -0.15215524 -0.11734472 -0.10786437 -0.119615555 -0.17562841 -0.06942853 -0.12190586
-0.065829605 -0.14209153 -0.16328019 0.042266715 0.078930475 -0.0076114736 0.103303365 0.014174266
-0.05371162 -0.0023608455 -0.024188215 0.08220373 0.08081684 -0.00014593705 -0.0814267 -0.037265804
-0.0035712505 0.108487636 0.063783385 -0.08197039 0.02074922 0.042904127 -0.06778336 -0.015514277
0.121295124 0.0762055 0.11241108 -0.050522763 -0.027463663 0.0763926 -0.044127196 0.061008945
0.002339935 0.02071099 0.06054951 -0.038060118 0.018493107 0.05373172 -0.04148246 -0.04287039
0.08342022 0.061678756 0.07905314 0.08727316 0.048029337 0.06962206 0.0925352 0.11464534
0.124360815 0.12993397 0.10303668 0.105610296 0.002742325 -0.0691757 0.08236082 0.00877753
0.061862394 -0.019838858 0.0852485 -0.032059506 -0.07549189 -0.057135962 -0.020189269 0.062433697
0.069686376 -0.018051406 0.04213732 0.06793869 0.10262082 0.04906075 0.06964605 0.08008948
0.052060742 0.07403095 0.033910926 0.062429715 -0.0077307797 0.08380322 0.031603985 0.04301529
-0.080798976 -0.12635526 -0.11447971 0.096342586 0.035005916 0.03528659 -0.05903305 -0.09175709
-0.034875713 0.0052063684 0.084541135 -0.12424694 -0.1578265 -0.07773617 0.07993064 -0.0032137707
-0.08411913 -0.07929161 -0.00564494 -0.023881953 -0.036476623 -0.09223326 -0.068744935 0.020784162
0.058817733 0.00955841 0.025560698 0.18039028 0.08826505 -0.0955579 0.06460967 0.13976723
0.11093644 0.07771742 -0.051382188 0.08932544 0.14239961 0.14020716 0.03296703 0.049776852
0.028266618 0.1679869 0.009256518 0.04377052 0.16622809 0.15196897 0.200093 0.011461845
0.012820517 0.045535274 0.009500821 -0.018695956 0.08739511 0.04004934 -0.052040853 -0.08052201
0.057325307 0.08388734 -0.0148023795 -0.026391339 -0.062466756 -0.008403547 -0.03138108 0.08023774
-0.06320885 0.060114317 0.03177847 0.108509354 0.13526927 0.01808331 0.101632185 0.16840109
0.12954317 -0.07662436 -0.055011746 -0.14974011 -0.18529451 -0.14567564 0.035433125 -0.1741727
-0.1281506 -0.10026292 -0.03207202 -0.07073334 -0.13618368 -0.17111929 -0.10171661 -0.062222734
-0.037748374 -0.20115459 -0.26526764 -0.0542789 -0.042306706 0.0023999207 -0.11176777 -0.08935147
-0.06423724 0.012870016 0.09191938 0.0752309 0.06930126 0.077223554 -0.014661973 0.046411965
00000000: 11a3 4bbc c498 90bc eabe 363d 04bd b7bc
00000010: 69c8 73bd f62c d83d 7196 0f3e 4797 5c3d
00000020: b87d 153d 82be 1f3d 0d0a 7f3c de17 1b3d
00000030: a89a 8cbd 5a99 16bb 1fc3 08be b6ea bfbb
00000040: 1664 ddbd 151e 1fbe aee3 4bbe ab54 1bbe
00000050: fd42 983c 4ebf 3d3d 111f 953d 0ea5 64bd
00000060: 6bcf 573d 254e a23b e7fa 2a3c 19da a13d
00000070: 0d82 5c3d 8266 933c c31e 073e efc7 1cbc
00000080: db64 2c3d f43f c83b bbb4 6fbd 59f5 d83c
00000090: 70a3 d93d edc5 293c be23 bc3b 3bd6 d9bb
000000a0: 04c5 76bd 9677 f73c 58e5 753d f554 f0bc
000000b0: 3287 5ebd 61e7 88bd 2e4e cd3c e729 8e3b
000000c0: 03de a8bd ea4d 86bd 845c e2bd 8fbb bebd
000000d0: d029 b03d f532 3e3d 5b68 29bd f820 dfbd
000000e0: 717b 75bd e943 f4bc 660b 37bc c6cc 9f3c
000000f0: ce4d d4bd fa22 e8bd f634 a0bd 0799 7abc
00000100: ff85 f2bb 95ce 1bbe 6e52 f0bd ffe7 dcbd
00000110: 00f9 f4bd efd7 33be 8c30 8ebd c8a9 f9bd
00000120: acd1 86bd 7180 11be ec32 27be dd1f 2d3d
00000130: 4da6 a13d ab69 f9bb b790 d33d 2e3b 683c
00000140: b700 5cbd 6ab8 1abb 5d26 c6bc 6e5a a83d
00000150: 4d83 a53d ae06 19b9 0bc3 a6bd 07a4 18bd
00000160: a40b 6abb c42e de3d dda0 823d 18e0 a7bd
00000170: 45fa a93c 3dbc 2f3d 01d2 8abd 982f 7ebc
00000180: 9469 f83d a111 9c3d c837 e63d f5f0 4ebd
00000190: 7afb e0bc b973 9c3d b8be 34bd 84e4 793d
000001a0: 9859 193b 18aa a93c c302 783d ede4 1bbd
000001b0: db7e 973c cb15 5c3d 83e9 29bd dd98 2fbd
000001c0: 38d8 aa3d dda2 7c3d 9de6 a13d 45bc b23d
000001d0: 69ba 443d 0396 8e3d 1883 bd3d 2dcb ea3d
000001e0: e2b0 fe3d 690d 053e e504 d33d 364a d83d
000001f0: 94b8 333b fdab 8dbd caac a83d a1cf 0f3c
00000200: 6c63 7d3d 1a85 a2bc c496 ae3d d450 03bd
00000210: 7e9b 9abd 6607 6abd f763 a5bc 7aba 7f3d
00000220: bbb7 8e3d 8be0 93bc 2f98 2c3d 7123 8b3d
00000230: dd2a d23d edf3 483d 97a2 8e3d f405 a43d
00000240: a53d 553d 8a9d 973d 2fe6 0a3d 4db6 7f3d
00000250: 7b52 fdbb 06a1 ab3d 2e73 013d cd30 303d
00000260: ef79 a5bd 4663 01be 5774 eabd 434f c53d
00000270: 5d62 0f3d ac88 103d a4cc 71bd 24eb bbbd
00000280: d6d9 0ebd 2f9a aa3b e723 ad3d 2e75 febd
00000290: 459d 21be 2434 9fbd adb2 a33d 209e 52bb
000002a0: a746 acbd a463 a2bd 30f9 b8bb 16a4 c3bc
000002b0: 8368 15bd cbe4 bcbd 25ca 8cbd 8c43 aa3c
000002c0: ddea 703d e19a 1c3c ab64 d13c 3bb8 383e
000002d0: 4ec4 b43d dcb3 c3bd 1352 843d 241f 0f3e
000002e0: a532 e33d 502a 9f3d 2176 52bd 42f0 b63d
000002f0: 34d1 113e 7792 0f3e 7008 073d d0e2 4b3d
00000300: 658f e73c c204 2c3e a7a8 173c b748 333d
00000310: b237 2a3e c19d 1b3e 2ee5 4c3e 76ca 3b3c
00000320: 250d 523c 3283 3a3d 55a9 1b3c 4328 99bc
00000330: 35fc b23d c70a 243d ca28 55bd b9e8 a4bd
00000340: f1cd 6a3d 20cd ab3d ae85 72bc a632 d8bc
00000350: 24dd 7fbd 08af 09bc 7389 00bd af53 a43d
00000360: a473 81bd 6e3a 763d 242a 023d 273a de3d
00000370: 0784 0a3e 7323 943c 8924 d03d 5671 2c3e
00000380: f7a6 043e 3ced 9cbd ff53 61bd 7955 19be
00000390: d8bd 3dbe ff2b 15be 5322 113d 545a 32be
000003a0: e939 03be a556 cdbd f35d 03bd a4dc 90bd
000003b0: bc73 0bbe e539 2fbe cc50 d0bd 44dd 7ebd
000003c0: 0a9e 1abd 78fb 4dbe 29d1 87be 8d53 5ebd
000003d0: cc49 2dbd fd47 1d3b 80e6 e4bd e7fd b6bd
000003e0: d08e 83bd c2dc 523c 3a40 bc3d a812 9a3d
000003f0: d2ed 8d3d 6227 9e3d c638 70bc 791a 3e3d

conv2.bias f4 [16]
-0.059768133 -0.012309671 0.055539105 0.0069372314 -0.09423024 -0.0056342306 0.0425095 -0.0020993918
0.09443482 -0.036684252 0.033690743 0.051878043 0.052508283 0.06697994 0.050133787 0.018164724
00000000: 6ecf 74bd 81ae 49bc f97c 633d b751 e33b
00000010: c9fb c0bd 5a9f b8bb 711e 2e3d f395 09bb
00000020: 0b67 c13d 3a42 16bd 4eff 093d 127e 543d
00000030: ed12 573d c72c 893d 1659 4d3d 30ce 943c

fc_1.weight f4 [120, 400]
0.013981065 0.043695785 0.023004489 -0.03250517 -0.094766274 0.024070142 0.020813067 -0.05962314
-0.07592027 0.017875455 0.015657807 0.13857986 0.037799865 0.038567193 0.025998946 0.0069548027
0.17626727 0.0643903 -0.08271355 0.001719269 0.017003234 0.0317723 0.0735774 0.022846796
-0.031060616 0.030301364 -0.00778128 -0.063230224 0.07511612 0.085834585 -0.05405034 -0.04467974
0.043414276 0.08861817 -0.004998624 -0.043865133 -0.061654463 -0.046531055 0.08165739 -0.07428267
-0.09055717 -0.06785317 -0.010154725 -0.021933772 -0.0800358 -0.037903454 -0.106157675 0.124653004
-0.03310731 -0.04980386 0.011906078 0.039523266 -0.033516906 0.05747152 -0.09872539 -0.06170647
0.0051699257 0.008669539 0.084684975 0.02267641 -0.08438582 -0.01297995 0.010281903 0.044585984
0.008506021 -0.04279579 -0.09074321 0.030032847 0.09689101 0.074184924 0.026559018 0.0125520835
0.051819712 0.068399906 0.045957007 -0.051385153 -0.041521117 -0.11382874 0.044616405 -0.012933458
-0.044500437 -0.07129008 -0.08376158 -0.014457199 0.099988386 -0.016872408 -0.10933062 -0.052719448
-0.09874214 -0.0026195715 0.04929607 -0.03721118 -0.13753182 -0.034695383 0.03148923 0.05507108
0.112504415 0.0756308 0.033342287 -0.0010275278 -0.038830347 0.0021973916 -0.14378226 -0.042718194
0.034125753 -0.035384476 -0.034391657 -0.040538743 -0.0027738167 -0.027944408 -0.020856299 0.016328193
0.029827556 -0.027073031 0.043494403 0.006952781 0.029766472 0.053607047 0.13447751 0.008720105
-0.008928749 0.049994163 0.0958788 0.025587605 -0.054012615 -0.018820612 0.05470814 0.09480238
0.022336803 -0.021140594 -0.034757163 0.14006278 0.15109786 -0.005761929 0.09625355 0.084887125
-0.049320433 0.11608735 -0.028548256 -0.029991984 0.013531302 0.060170606 0.03400001 0.06292353
-0.053601865 -0.037009615 -0.107080005 -0.04024131 -0.00022097821 0.05627099 -0.009671595 0.02645266
0.055552684 -0.057793114 -0.07258286 -0.10115581 -0.0046591223 0.011140485 -0.0009660886 0.012497721
0.17737716 -0.034758758 0.04230378 0.011979747 -0.039263923 0.13186133 0.07877189 0.01075344
-0.020235678 0.060045805 0.09011755 -0.028004497 -0.028670024 -0.025135932 -0.03034934 -0.04280294
-0.09601147 -0.038029008 -0.028684579 0.0018144604 0.02567562 0.030262398 0.034372136 0.06150173
-0.0006741325 -0.11013144 0.0010437623 0.053913668 0.00691111 0.024772504 0.05136147 -0.04971117
0.04097227 -0.06917853 0.0020284213 0.09014354 0.1025131 0.0024542904 0.0059181047 -0.017799733
-0.0052096243 -0.044736806 -0.02659929 -0.0561562 0.042566035 0.055531602 -0.08909914 -0.035559617
-0.030697908 0.087233685 -0.023892231 -0.04119957 -0.060510315 -0.028597785 0.048430663 -0.04309116
-0.07516127 -0.14525943 0.07844919 0.024635812 -0.058401484 -0.0011563138 -0.050347965 -0.020903014
0.045089435 0.04382808 0.028769432 0.06911654 0.10121332 0.058594324 -0.052261047 -0.092159286
0.0062141153 -0.014164119 -0.006542712 0.0041346317 -0.020186177 0.01193733 0.051927395 0.06464149
-0.015326971 -0.05219788 0.020408144 -0.010718595 -0.0978165 0.019286703 0.010614969 0.20287663
0.08738439 -0.037399832 0.05182432 -0.03305964 -0.10226934 -0.09893552 -0.054939702 0.06879666
00000000: d610 653c 5afa 323d e973 bc3c 2424 05bd
00000010: d214 c2bd bf2e c53c 2a80 aa3c 6537 74bd
00000020: 167c 9bbd 8c6f 923c cd44 803c e1e7 0d3e
00000030: 08d4 1a3d a2f8 1d3d befb d43c 1de5 e33b
00000040: 687f 343e 10df 833d b965 a9bd 1859 e13a
00000050: 5e4a 8b3c ac23 023d bfaf 963d 3429 bb3c
00000060: d572 febc 913a f83c 1cfa febb d97e 81bd
00000070: 7bd6 993d 0bca af3d e463 5dbd 1a02 37bd
00000080: 2bd3 313d 717d b53d 7fcb a3bb edab 33bd
00000090: 6489 7cbd 5997 3ebd fd3b a73d 8321 98bd
000000a0: 0a76 b9bd 9af6 8abd 0160 26bc 74ae b3bc
000000b0: cfe9 a3bd a740 1bbd 3269 d9bd 134a ff3d
000000c0: 889b 07bd 22ff 4bbd b611 433c 26e3 213d
000000d0: 0649 09bd 4267 6b3d 8a30 cabd ecbf 7cbd
000000e0: 7b68 a93b af0a 0e3c 516f ad3d e1c3 b93c
000000f0: 79d2 acbd dba9 54bc 6d75 283c cb9f 363d
00000100: d75c 0b3c a34a 2fbd 93d7 b9bd 7207 f63c
00000110: cb6e c63d 44ee 973d 4c92 d93c 41a7 4d3c
00000120: e840 543d 4015 8c3d 6a3d 3c3d 3d79 52bd
00000130: 0c12 2abd 0b1f e9bd b1bf 363d dbe6 53bc
00000140: 1746 36bd 8900 92bd 318b abbd e3dd 6cbc
00000150: b6c6 cc3d 0138 8abc bbe8 dfbd 59f0 57bd
00000160: 5239 cabd 1ead 2bbb adea 493d c06a 18bd
00000170: 24d5 0cbe bf1c 0ebd dafa 003d 3692 613d
00000180: b768 e63d 52e4 9a3d ec91 083d 1dae 86ba
00000190: 920c 1fbd 1d02 103b a83b 13be 46f9 2ebd
000001a0: 72c7 0b3d 50ef 10bd 44de 0cbd f40b 26bd
000001b0: ecc8 35bb aceb e4bc d4da aabc b4c2 853c
000001c0: eb58 f43c 43c8 ddbc 3027 323d 28d4 e33b
000001d0: d1d8 f33c 1093 5b3d 79b4 093e c5de 0e3c
000001e0: e349 12bc aec6 4c3d 1b5c c43d 199d d13c
000001f0: 553c 5dbd af2d 9abc a515 603d c027 c23d
00000200: acfb b63c 0a2f adbc 875d 0ebd 9e6c 0f3e
00000210: 66b9 1a3e 90ce bcbb 9520 c53d 4dd9 ad3d
00000220: 3904 4abd 34bf ed3d 08de e9bc c0b1 f5bc
00000230: 65b2 5d3c 7475 763d 9843 0b3d 0dde 803d
00000240: a18d 5bbd 6597 17bd c34c dbbd 12d4 24bd
00000250: 63b6 67b9 697c 663d 9c75 1ebc 40b3 d83c
00000260: 368b 633d 79b8 6cbd 53a6 94bd c72a cfbd
00000270: 8dab 98bb 9586 363c 1c41 7dba 3ec3 4c3c
00000280: 5ca2 353e 335f 0ebd ba46 2d3d b346 443c
00000290: 35d3 20bd a806 073e 2853 a13d 322f 303c
000002a0: 4bc5 a5bc 97f2 753d 8d8f b83d b069 e5bc
000002b0: 66dd eabc dfe9 cdbc 2e9f f8bc 2352 2fbd
000002c0: a9a1 c4bd 4ec4 1bbd ecfb eabc 30d3 ed3a
000002d0: ae55 d23c d9e8 f73c ccc9 0c3d 3de9 7b3d
000002e0: 44b8 30ba 988c e1bd dace 883a 94d4 5c3d
000002f0: 9876 e23b b5ef ca3c 6860 523d f19d 4bbd
00000300: 8ad2 273d 79ad 8dbd 43ef 043b 2d9d b83d
00000310: 63f2 d13d 29d8 203b a9ec c13b bfd0 91bc
00000320: 7fb5 aabb f13d 37bd c1e6 d9bc 0b04 66bd
00000330: b959 2e3d 1b75 633d 9c79 b6bd f6a6 11bd
00000340: 2e7a fbbc 93a7 b23d a4b9 c3bc e1c0 28bd
00000350: aad9 77bd e745 eabc 3b5f 463d 5b80 30bd
00000360: 27ee 99bd e3be 14be f8a9 a03d 0bd1 c93c
00000370: 6536 6fbd 748f 97ba ab39 4ebd cc3c abbc
00000380: b3af 383d 1385 333d dfad eb3c f98c 8d3d
00000390: ee48 cf3d 9a00 703d ae0f 56bd 02be bcbd
000003a0: c79f cb3b 9f10 68bc 3f64 d6bb ce7b 873b
000003b0: 7b5d a5bc ca94 433c d2b1 543d c262 843d
000003c0: fa1d 7bbc 72cd 55bd fb2e a73c 0c9d 2fbc
000003d0: 0454 c8bd 26ff 9d3c 68ea 2d3c e4be 4f3e
000003e0: 96f6 b23d 9130 19bd bd45 543d 8c69 07bd
000003f0: 9672 d1bd b59e cabd 7408 61bd 43e5 8c3d

fc_1.bias f4 [120]
-0.01757973 -0.008938821 -0.0028118335 0.026703442 0.0137333535 -0.013698324 -0.003916585 0.01004134
-0.025797479 -0.05121827 0.08595739 0.06918224 0.030892357 -0.032184828 -0.08241736 -0.033882737
0.027914636 -0.06003068 0.041784003 -0.03049132 -0.026875257 -0.07345467 -0.007423729 0.0031136468
-0.0447706 -0.014473601 -0.074259184 -0.06704416 0.0047919266 0.0072929733 -0.02241396 -0.066792965
0.038786124 0.008129452 -0.011214598 0.025944304 0.008688163 0.048935276 -0.029703302 -0.008498343
0.03323771 0.0061227586 0.0033232735 -0.028881313 0.018190706 -0.018507667 0.0626289 -0.0016755136
0.017718103 -0.023389932 -0.04593774 0.08961317 0.004140976 0.054725405 -0.015340609 -0.046356026
0.018124886 0.017870333 -0.031168237 0.062083703 -0.052423418 0.045609612 0.03893466 0.04483739
-0.05281478 0.009574987 0.026866809 0.0372718 -0.08563651 0.06736526 0.0015107457 -0.043074332
-0.040994994 0.05457069 0.0048676184 0.09722075 -0.04785501 0.030885788 0.0879231 0.05789874
-0.010120116 -0.056703743 -0.007480061 0.036998946 -0.008825555 0.0013177624 -0.017576331 0.0714329
-0.0031068425 -0.032805823 -0.037162054 0.06465436 -0.0007334599 -0.02788323 0.02619232 0.009109967
-0.08484175 -0.041782107 -0.024464233 0.029601995 -0.02243549 -0.046917394 0.055918097 0.02579077
0.0057858564 0.027717685 -0.057435326 0.0105734505 -0.08798816 0.017361257 0.02256767 -0.01473153
0.053662796 0.04412001 -0.058482733 0.009916632 -0.07363834 0.029553527 -0.035908364 0.05008261
00000000: 5e03 90bc 2274 12bc bd46 38bb 2dc1 da3c
00000010: dc01 613c ef6e 60bc b256 80bb 6f84 243c
00000020: 3c55 d3bc 40ca 51bd 6e0a b03d 6baf 8d3d
00000030: f811 fd3c 3dd4 03bd 6fca a8bd a0c8 0abd
00000040: 3cad e43c bbe2 75bd b425 2b3d efc8 f9bc
00000050: 8029 dcbc 676f 96bd c142 f3bb 530e 4c3b
00000060: 6061 37bd af22 6dbc 3315 98bd 734e 89bd
00000070: 9805 9d3b e5f9 ee3b 7b9d b7bc c0ca 88bd
00000080: 33de 1e3d 6531 053c 6fbd 37bc 2689 d43c
00000090: cc58 0e3c 5b70 483d 5754 f3bc a23c 0bbc
000000a0: 4424 083d 6ca1 c83b 47cb 593b 8198 ecbc
000000b0: ad04 953c 649d 97bc 9543 803d e89c dbba
000000c0: 8e25 913c 3e9c bfbc 3629 3cbd 1c87 b73d
000000d0: 06b1 873b bf27 603d 2d57 7bbc d1df 3dbd
000000e0: a47a 943c ce64 923c 8854 ffbc 7b4b 7e3d
000000f0: f0b9 56bd 25d1 3a3d f379 1f3d 69a7 373d
00000100: 5054 58bd 68e0 1c3c c817 dc3c 51aa 183d
00000110: 3262 afbd ccf6 893d 3704 c63a b66e 30bd
00000120: 5eea 27bd 8485 5f3d 8b80 9f3b ac1b c73d
00000130: 9d03 44bd 3104 fd3c 0711 b43d 3b27 6d3d
00000140: d8ce 25bc 2f42 68bd 4d1b f5bb 358c 173d
00000150: 1099 10bc c5b8 ac3a 3dfc 8fbc 6a4b 923d
00000160: 2b9c 4bbb 665f 06bd 3d37 18bd 8169 843d
00000170: a945 40ba 5f6b e4bc 4791 d63c f941 153c
00000180: 83c1 adbd b723 2bbd 3769 c8bc e27f f23c
00000190: a2ca b7bc 742c 40bd 600a 653d 2a47 d33c
000001a0: 4897 bd3b 3310 e33c 4e41 6bbd 443c 2d3c
000001b0: 2333 b4bd 3239 8e3c d6df b83c 845c 71bc
000001c0: 85cd 5b3d 2fb7 343d 978b 6fbd 5f79 223c
000001d0: b3cf 96bd 3d1a f23c a614 13bd 6c23 4d3d

fc_2.weight f4 [84, 120]
-0.13457488 0.010814871 -0.00035759422 0.07014182 -0.098359965 -0.09399995 -0.1399627 -0.06780586
-0.13350308 0.03595604 -0.06624575 0.11654367 0.05995964 -0.08530068 -0.036471527 -0.049924616
0.014178227 -0.090883516 -0.02276382 0.12255115 0.009671895 0.07987266 -0.09230508 -0.13894698
0.040961493 -0.04087305 0.0956651 -0.11441178 -0.14637566 0.037959676 -0.1453121 0.0992422
-0.13101557 0.01077615 -0.087912194 0.035828944 0.14034778 0.04960755 0.124925114 -0.081555896
-0.004134969 0.01051359 -0.026737833 -0.03342985 0.030398753 0.1006165 0.13585629 0.07689662
0.11583188 0.0660877 -0.041957676 -0.00929629 -0.032472458 0.074950725 0.122099765 0.13390781
0.18094039 -0.0911943 0.10386 -0.08886021 -0.13223746 -0.060112793 0.08709445 -0.06621199
0.13848783 -0.16135773 -0.114806786 0.11550661 -0.034058623 -0.08318515 0.06854207 -0.013161707
-0.06809914 0.06960471 -0.116479546 0.10063119 -0.008904054 -0.029617742 0.15596057 0.008111211
-0.06344893 0.017981552 0.063909285 -0.07894222 -0.03382898 -0.035919968 -0.15099934 0.05754683
-0.081064954 0.04921221 0.0060513513 -0.0051721814 0.13925233 0.015153684 -0.047198713 0.085625164
-0.1373259 -0.041468766 -0.061331235 0.11292803 0.08505123 0.014242522 -0.12374351 0.0005922518
-0.11972806 0.07019382 -0.09212295 -0.053011924 0.08687286 -0.09051328 -0.16395786 0.041332867
0.07718256 -0.012665059 -0.1574539 0.053807423 0.06681075 -0.12829445 -0.06235241 -0.057207335
-0.03579988 -0.03842884 -0.021533139 -0.11307993 -0.033443373 0.04947759 -0.06004395 0.025735658
-0.059245877 -0.043718953 0.058165148 0.119478755 0.08507555 -0.108371936 0.017346837 -0.051238153
0.061003063 -0.023930522 0.09145336 0.13730553 -0.14184564 0.024221 0.12454364 -0.044292077
-0.16728908 -0.0046191206 0.079703204 -0.05785866 -0.021840261 -0.009192832 -0.0009986869 -0.095703654
-0.07692929 -0.020610996 0.03553114 -0.009608847 -0.0022290663 0.20739621 0.06194965 -0.0766745
-0.0030373468 0.07178307 0.12580831 -0.010697388 0.014673121 -0.05112526 0.13356236 0.14670278
0.009489199 0.0959736 0.13485312 0.08297796 -0.03578907 -0.05012013 0.031099517 -0.029860605
0.077523686 -0.12378121 -0.057553686 0.021305412 -0.08719926 0.18855596 0.028086865 0.06646362
0.0025392766 0.05940573 0.09962181 -0.0086989775 -0.053202685 -0.06308849 0.116532646 -0.03178045
-0.085829034 0.17882374 0.0067510195 0.012530463 -0.081908576 0.039043993 -0.024367025 -0.037418306
-0.05764936 0.021862732 -0.04427499 0.02754461 0.012271165 0.030148784 -0.087837465 -0.061998237
0.015920617 0.10345568 0.0870672 0.08243787 -0.006329062 -0.10085794 0.07050353 0.050200284
-0.06540177 0.059037283 -0.069592476 0.017244421 -0.0400464 0.040548187 -0.1562552 -0.00073039817
0.024909943 0.021145353 -0.049188573 0.028542617 -0.08269844 -0.0941448 -0.08812473 -0.000820676
0.087896235 -0.11298943 0.0050712377 -0.03190133 -0.09631769 0.09320261 -0.0574277 0.0023683254
-0.1349819 0.09739717 -0.12752163 0.08359424 0.049440056 -0.013203284 0.044911392 -0.013946414
0.18365666 -0.12765978 0.028025763 0.17700481 -0.13006544 -0.056802236 0.13319595 -0.085886784
00000000: ffcd 09be db30 313c 7c7b bbb9 84a6 8f3d
00000010: f370 c9bd 0c83 c0bd 6252 0fbe ccdd 8abd
00000020: 08b5 08be a446 133d daab 87bd 73ae ee3d
00000030: 3d98 753d 1fb2 aebd 2b63 15bd c17d 4cbd
00000040: cb4b 683c 2321 babd 317b babc 19fc fa3d
00000050: de76 1e3c 4794 a33d 720a bdbd 1e48 0ebe
00000060: 3dc7 273d 806a 27bd 10ec c33d b950 eabd
00000070: 80e3 15be 9b7b 1b3d b2cc 14be 7f3f cb3d
00000080: f228 06be 738e 303c 4f0b b4bd 5fc1 123d
00000090: 54b7 0f3e 4931 4b3d bdd8 ff3d c706 a7bd
000000a0: a27e 87bb 3141 2c3c 4d09 dbbc bded 08bd
000000b0: ce06 f93c 0610 ce3d e91d 0b3e fa7b 9d3d
000000c0: 4439 ed3d fd58 873d d0db 2bbd 774f 18bc
000000d0: d701 05bd c47f 993d 710f fa3d 211f 093e
000000e0: 7048 393e 14c4 babd 8db4 d43d 57fc b5bd
000000f0: 4269 07be d538 76bd 935e b23d 279a 87bd
00000100: c1cf 0d3e f63a 25be d21f ebbd bb8e ec3d
00000110: 0e81 0bbd fa5c aabd c95f 8c3d 33a4 57bc
00000120: 9077 8bbd ea8c 8e3d d48c eebd ba17 ce3d
00000130: 4fe2 11bc e8a0 f2bc 21b4 1f3e e2e4 043c
00000140: 83f1 81bd 0c4e 933c dfe2 823d 75ac a1bd
00000150: 4290 0abd d120 13bd 929f 1abe 3ab6 6b3d
00000160: 6205 a6bd be92 493d 6a4a c63b 677b a9bb
00000170: 2a98 0e3e 2847 783c 7053 41bd 3f5c af3d
00000180: 299f 0cbe 27db 29bd 7636 7bbd d046 e73d
00000190: 572f ae3d 7859 693c 3d6d fdbd 5841 1b3a
000001a0: fc33 f5bd c7c1 8f3d f5aa bcbd 0823 59bd
000001b0: 66ea b13d 075f b9bd 92e4 27be a74c 293d
000001c0: e411 9e3d 1c81 4fbc 983b 21be 2c65 5c3d
000001d0: 13d4 883d 9f5f 03be 3e65 7fbd 3d52 6abd
000001e0: e5a2 12bd 8f67 1dbd 4466 b0bc 7396 e7bd
000001f0: ebfb 08bd 03a9 4a3d a5f0 75bd 96d3 d23c
00000200: ceab 72bd a512 33bd 943e 6e3d 47b1 f43d
00000210: 173c ae3d 1bf2 ddbd f41a 8e3c 19df 51bd
00000220: 59de 793d f109 c4bc e64b bb3d d299 0c3e
00000230: fc3f 11be 1e6b c63c bc10 ff3d 9c6b 35bd
00000240: d44d 2bbe fe5b 97bb 6f3b a33d 34fd 6cbd
00000250: 59ea b2bc 889d 16bc 5fe6 82ba 4700 c4bd
00000260: 1b8d 9dbd 64d8 a8bc 1a89 113d 6d6e 1dbc
00000270: 8715 12bb ac5f 543e ebbe 7d3d 8507 9dbd
00000280: 390e 47bb 0103 933d e5d3 003e 1944 2fbc
00000290: 8867 703c b868 51bd 92c4 083e 4139 163e
000002a0: 9678 1b3c cf8d c43d f016 0a3e 59f0 a93d
000002b0: 8f97 12bd c44a 4dbd 6ac4 fe3c 3a9e f4bc
000002c0: bdc4 9e3d 0181 fdbd 6abd 6bbd b088 ae3c
000002d0: 8795 b2bd d014 413e 6d16 e63c 141e 883d
000002e0: fe69 263b 6c53 733d 8506 cc3d 2886 0ebc
000002f0: 0feb 59bd 8a34 81bd aba8 ee3d 382c 02bd
00000300: 22c7 afbd 921d 373e a837 dd3b 924c 4d3c
00000310: afbf a7bd 98ec 1f3d 5b9d c7bc f043 19bd
00000320: bc21 6cbd 7919 b33c b159 35bd 3ca5 e13c
00000330: ff0c 493c 95fa f63c 21e4 b3bd ddf1 7dbd
00000340: f46b 823c 92e0 d33d 4a50 b23d 30d5 a83d
00000350: 0564 cfbb 9c8e cebd 2864 903d d09e 4d3d
00000360: 5df1 85bd 14d1 713d 8086 8ebd 2c44 8d3c
00000370: b207 24bd db15 263d 5d01 20be 3178 3fba
00000380: f00f cc3c 0539 ad3c f579 49bd 35d2 e93c
00000390: cd5d a9bd fdce c0bd bd7a b4bd a222 57ba
000003a0: f102 b43d 0167 e7bd a02c a63b f8aa 02bd
000003b0: 3642 c5bd 03e1 be3d 4f39 6bbd e835 1b3b
000003c0: b238 0abe 2b78 c73d 0895 02be 7533 ab3d
000003d0: a881 4a3d 9652 58bc 02f5 373d 807f 64bc
000003e0: 7e10 3c3e 3fb9 02be 4996 e53c c040 353e
000003f0: e02f 05be 76a9 68bd 8564 083e 69e5 afbd

fc_2.bias f4 [84]
0.085178636 0.014847096 0.026870681 -0.073295444 0.016941806 0.06953969 -0.04035786 -0.009893605
0.017310476 -0.10294126 0.016864471 0.0541144 -0.0643005 -0.01219706 -0.08646001 -0.021420104
-0.10642545 -0.12411318 -0.07659636 0.10122255 -0.011091583 -0.008114717 0.012288792 -0.05117752
0.037144706 0.023849484 0.049702372 -0.0024745953 -0.054319065 -0.027402833 -0.09637056 0.07757032
-0.092441365 -0.012057059 0.0017263652 -0.07342168 -0.1009905 0.034423795 0.100239694 -0.047816455
-0.011107284 -0.027311174 -0.07704723 -0.08319289 0.059606135 -0.059668843 -0.06994851 -0.044275075
0.04782901 -0.032892648 0.028087432 0.041677427 -0.08910817 0.054432385 -0.07916637 -0.04330207
0.017865505 -0.031512905 -0.13490155 0.037540376 -0.054577127 -0.1021143 -0.039489396 0.06970272
-0.070766255 -0.06892792 0.012140315 -0.10772851 -0.103647955 0.11255317 0.0069322386 0.023782307
-0.099218145 -0.054282196 0.003135676 0.013363148 0.11021845 0.038861584 0.056089714 -0.03310014
0.10500432 -0.03196414 -0.08737536 -0.050031517
00000000: 2372 ae3d 3c41 733c e71f dc3c ec1b 96bd
00000010: 8bc9 8a3c d36a 8e3d 494e 25bd c918 22bc
00000020: b3ce 8d3c ded2 d2bd 5c27 8a3c 10a7 5d3d
00000030: fbaf 83bd 2dd6 47bc f211 b1bd 3779 afbc
00000040: 96f5 d9bd 0d2f febd 8dde 9cbd c54d cf3d
00000050: 79b9 35bc 97f3 04bc ee56 493c 859f 51bd
00000060: 0c25 183d fe5f c33c b794 4b3d d22c 22bb
00000070: ab7d 5ebd e87b e0bc ee5d c5bd 30dd 9e3d
00000080: e651 bdbd f98a 45bc 3447 e23a 1b5e 96bd
00000090: 1bd4 cebd f7ff 0c3d 784a cd3d 30db 43bd
000000a0: 53fb 35bc afbb dfbc f0ca 9dbd 0961 aabd
000000b0: 9025 743d 5167 74bd 2a41 8fbd c859 35bd
000000c0: 5ae8 433d 71ba 06bd 9d17 e63c f3b5 2a3d
000000d0: 587e b6bd 7ef4 5e3d fa21 a2bd 835d 31bd
000000e0: ae5a 923c ad13 01bd a223 0abe f0c3 193d
000000f0: 448c 5fbd 4d21 d1bd a2bf 21bd 4dc0 8e3d
00000100: e6ed 90bd 152a 8dbd 2ce8 463c c4a0 dcbd
00000110: 6145 d4bd 4782 e63d d527 e33b 1dd3 c23c
00000120: e232 cbbd 0257 5ebd ea7f 4d3b 1bf1 5a3c
00000130: 36ba e13d 532d 1f3d 54be 653d 0394 07bd
00000140: 810c d73d d4ec 02bd daf1 b2bd d9ed 4cbd

fc_3.weight f4 [10, 84]
0.12240982 0.06648087 -0.04381892 -0.20623189 0.16521953 0.022326443 0.10496059 0.06167892
0.06562222 0.14676946 0.1552056 -0.0075203 0.14650267 0.15986377 0.04312084 0.08757505
-0.015255193 0.17852049 0.13613896 -0.026022723 0.14673638 -0.12624496 -0.13357615 -0.09284574
-0.010731651 -0.17647323 0.06783314 0.11347878 0.07575493 -0.041150376 0.028601276 -0.05034288
0.008256417 0.1687265 -0.076314494 0.0011555712 0.067027934 0.1477577 0.012475808 0.12952895
0.11535904 -0.15392491 0.06608604 0.14981161 -0.08288735 0.08840205 -0.12582406 -0.1328792
-0.08973587 -0.02249901 -0.010277075 0.08865624 0.15800445 -0.08450452 -0.006023015 -0.016563583
0.110457756 -0.026756637 0.120897375 0.0533647 -0.08490078 0.036337864 0.09807852 -0.14331824
0.10281338 0.1599734 0.0068989936 -0.0655297 0.103832185 0.07690647 0.058943916 -0.047392968
-0.10151335 0.14017212 -0.06733213 -0.03773218 0.11347161 -0.06602337 -0.13434587 0.004732095
-0.031158606 0.16704006 -0.16460049 0.06818931 -0.15089285 -0.16949406 0.029732231 -0.09268142
-0.045416657 -0.080227055 -0.123382635 -0.043836176 -0.10271023 -0.10215606 0.10740541 -0.16106968
0.12536211 0.08726866 0.12341745 -0.09625138 -0.11500473 0.19606729 -0.051877316 -0.1400958
0.12031725 -0.09332204 -0.014346633 0.1204908 -0.14963081 -0.067779705 -0.08924512 -0.093166955
-0.15282527 0.05605073 0.106730714 -0.09681283 0.14031646 -0.12054056 0.11536022 0.16953087
0.07036156 -0.115306504 -0.18131611 -0.035267834 -0.16580184 0.049796626 0.02559363 0.004562267
-0.014097433 -0.055709206 0.08473833 0.07738877 0.10608016 -0.12472998 -0.1517019 0.04193701
0.19546592 0.02447343 0.16252856 -0.08604066 -0.08342863 0.05387943 0.08913186 0.030256601
0.110008724 0.21082124 0.14924476 0.12402989 -0.08251371 -0.09848248 -0.14215344 0.1074739
-0.028100304 -0.0652692 0.007944555 -0.018470913 0.072051376 -0.027379794 -0.09912537 0.06487125
-0.15299228 0.08143032 -0.0030826344 -0.11218004 -0.034716368 0.12800229 0.05735192 -0.05831642
-0.005766839 0.07716532 -0.06274382 -0.028472425 0.12106168 0.11528217 0.10353137 -0.14321683
-0.023166731 -0.10427977 0.010635369 -0.098065615 0.14005525 -0.10113907 0.032740813 -0.12676975
-0.15521453 -0.071720354 0.012401768 -0.010656057 -0.0007345308 -0.0842262 0.1374583 0.033161383
-0.13047418 -0.13956045 -0.14289534 -0.057783514 -0.11483957 0.07397363 -0.012433626 0.040102545
-0.15299565 -0.04855638 -0.14663213 -0.14097625 0.02147349 -0.096250646 0.108728684 0.11074737
-0.13285269 -0.006890217 -0.043860067 0.09976929 0.1455857 -0.03382434 0.017896367 -0.021427423
-0.0068099867 0.13308877 -0.17603894 -0.15946065 0.082063034 0.09516928 -0.084429145 -0.12264587
0.024026819 -0.10910199 0.0062446184 0.18781376 -0.053468302 -0.11436358 -0.045358196 0.12162291
0.017257072 -0.10631985 -2.9474097e-05 -0.15602808 0.03389798 0.17274684 -0.0455019 -0.10601379
0.10160756 0.104445755 -0.080954745 0.061964367 0.048275966 -0.0017423294 0.17773686 0.019841341
0.021693047 0.14985217 -0.0078054657 0.02389751 -0.15279707 0.013331596 0.15189222 0.16083416
00000000: 00b2 fa3d 1f27 883d 787b 33bd 742e 53be
00000010: 4f2f 293e f2e5 b63c 94f5 d63d 09a3 7c3d
00000020: f164 863d bc4a 163e 38ee 1e3e d96c f6bb
00000030: cc04 163e 54b3 233e 7a9f 303d 8c5a b33d
00000040: ebf0 79bc 13ce 363e 0368 0b3e 9b2d d5bc
00000050: 1042 163e 5c46 01be 30c8 08be e825 bebd
00000060: cfd3 2fbc 66b5 34be 1aec 8a3d 9067 e83d
00000070: 6725 9b3d 4c8d 28bd 394d ea3c 5634 4ebd
00000080: ec45 073c a4c6 2c3e c64a 9cbd 8976 973a
00000090: f145 893d cb4d 173e 5567 4c3c 3da3 043e
000000a0: 5c41 ec3d 7e9e 1dbe 1e58 873d 3768 193e
000000b0: d8c0 a9bd 220c b53d 06d8 00be 7c11 08be
000000c0: 71c7 b7bd d84f b8bc 2d61 28bc 6791 b53d
000000d0: ebcb 213e b510 adbd b65c c5bb 5ab0 87bc
000000e0: ad37 e23d bc30 dbbc 0b99 f73d f294 5a3d
000000f0: 76e0 adbd 03d7 143d 64dd c83d 04c2 12be
00000100: d28f d23d 11d0 233e f410 e23b 6f34 86bd
00000110: f8a5 d43d 2481 9d3d 2d6f 713d 211f 42bd
00000120: 3be6 cfbd 4889 0f3e 6ee5 89bd 0f8d 1abd
00000130: ce63 e83d 4337 87bd f791 09be b10f 9b3b
00000140: 5540 ffbc 8d0c 2b3e 088d 28be d6a6 8b3d
00000150: a883 1abe da8f 2dbe 0291 f33c c2cf bdbd
00000160: d106 3abd 154e a4bd 09b0 fcbd 908d 33bd
00000170: be59 d2bd 3237 d1bd 5ef7 db3d 73ef 24be
00000180: ed5e 003e e9b9 b23d 4ac2 fc3d 721f c5bd
00000190: 9a87 ebbd ddc5 483e 4f7d 54bd 4675 0fbe
000001a0: e468 f63d a01f bfbd 240e 6bbc e1c3 f63d
000001b0: d238 19be 16d0 8abd 25c6 b6bd 51ce bebd
000001c0: 3a7e 1cbe 7395 653d a295 da3d ce45 c6bd
000001d0: 1eaf 0f3e f8dd f6bd fb41 ec3d 8099 2d3e
000001e0: b919 903d d125 ecbd eeaa 39be 0175 10bd
000001f0: f5c7 29be 8cf7 4b3d bba9 d13c 127f 953b
00000200: ebf8 66bc 562f 64bd 4a8b ad3d 017e 9e3d
00000210: 8e40 d93d 6f72 ffbd be57 1bbe 24c6 2b3d
00000220: 3828 483e 817c c83c e36d 263e 1636 b0bd
00000230: a1dc aabd adb0 5c3d c48a b63d b1dc f73c
00000240: 414c e13d 86e1 573e 9ed3 183e 6203 fe3d
00000250: f3fc a8bd 2fb1 c9bd ac90 11be 471b dc3d
00000260: 9c32 e6bc dcab 85bd e129 023c 5050 97bc
00000270: ac8f 933d 974b e0bc 3e02 cbbd 38db 843d
00000280: 02aa 1cbe f1c4 a63d 0606 4abb a6be e5bd
00000290: c032 0ebd 0813 033e d9e9 6a3d 33dd 6ebd
000002a0: c0f7 bcbb da08 9e3d d57f 80bd 013f e9bc
000002b0: 30ef f73d 0f19 ec3d 4108 d43d 6fa7 12be
000002c0: 28c8 bdbc a290 d5bd f93f 2e3c a0d6 c8bd
000002d0: a56a 0f3e 0022 cfbd 3b1b 063d eecf 01be
000002e0: 8ff0 1ebe 1fe2 92bd c930 4b3c be96 2ebc
000002f0: 878d 40ba c97e acbd dec1 0c3e 3bd4 073d
00000300: 069b 05be efe8 0ebe 2853 12be 68ae 6cbd
00000310: 0231 ebbd 7d7f 973d 68b6 4bbc 9142 243d
00000320: e4aa 1cbe 0ee3 46bd bc26 16be 145c 10be
00000330: 2ce9 af3c 0f1f c5bd 25ad de3d 84cf e23d
00000340: 890a 08be 54c7 e1bb 9da6 33bd d753 cc3d
00000350: 6b14 153e 648b 0abd 679b 923c 9088 afbc
00000360: 4f26 dfbb 6c48 083e 8d43 34be a749 23be
00000370: aa10 a83d 1de8 c23d 30e9 acbd c22d fbbd
00000380: e4d3 c43c dd70 dfbd a89f cc3b 4052 403e
00000390: 9401 5bbd 7437 eabd 84c9 39bd 6f15 f93d
000003a0: b45e 8d3c 39be d9bd 243f f7b7 d3c5 1fbe
000003b0: 9cd8 0a3d 8ce4 303e 3360 3abd c21d d9bd
000003c0: a017 d03d a8e7 d53d 9acb a5bd 59ce 7d3d
000003d0: 05bd 453d e05e e4ba a700 363e 4f8a a23c
000003e0: 9eb5 b13c d972 193e fec4 ffbb b6c4 c33c
000003f0: d676 1cbe c46c 5a3c a289 1b3e b6b1 243e

fc_3.bias f4 [10]
0.0872908 -0.018755302 0.04224529 -0.031192252 0.051871005 0.036227252 -0.04092633 0.07293244
0.07865976 -0.045782078
00000000: 85c5 b23d b8a4 99bc 6609 2d3d e586 ffbc
00000010: b176 543d 0763 143d 5ea2 27bd 9a5d 953d
00000020: 5e18 a13d fd85 3bbd
